Notebooks/Training/LDNNET for Nodule Classification/ldnnet_lcnnet_pytorch_output/LDNNET_best.pth (torch, 944745 bytes, 55 tensors)

features.0.conv.weight f4 [32, 1, 3, 3, 3]
00000000: 9400 a9bd 049e fbbe 76ca 8ebe ac3f 84be
00000010: f078 7cbe b596 3e3f 236c 363e a9c1 b1be
00000020: c72e 5ebd 39bf 923e 91bf 0d3e 65c3 c03e
00000030: cbb9 00be 75b0 383e e003 c63d ab0b 04be
00000040: 13d8 28be d9df db3e 0506 d03e 8346 8f3e
00000050: 0eac 31bd 578c 743e ef0b ff3a be9d edbe
00000060: 0290 05be 6349 5ebd 8a82 c0be a954 6f3d
00000070: c606 99bd a855 04be 7f46 bd3d 8272 f7bd
00000080: 6ebc 973d e68e 2bbe 1d27 87be a4c5 953d
00000090: 2676 163f a994 873d a56a 10be 050e 0d3c
000000a0: a03e bfbe 48e0 d93d 0c75 433e b987 2bbe
000000b0: caf7 16bd 5351 74be 311f fc3c 0909 3cbe
000000c0: 7efb df3e 3f60 aabe 2dd3 e53e a967 6dbe
000000d0: 4449 aebe cb4b c63d 3749 c83d 8576 adbe
000000e0: 5b28 19bf ae48 ae3d 3a84 9d3e e14a 84be
000000f0: 9027 54be 6ce7 b1be 2e1e f7be 2125 35bf
00000100: e2cb efbd 7e43 a2be 6cac 49be 43c2 4cbd
00000110: be2d d3be 1e00 14bf 677e a3be b46c abbc
00000120: c25f 58bf 9f1f 2dbe 7e88 493e 7bd6 bbbe
00000130: 44b3 d03e 3844 743e 51ce aabd b207 7fbd
00000140: f7e1 39be d040 00be 0dd2 ccbe aa6a 8ebe
00000150: d838 3f3e 2f57 f33e 71f2 043e f6c3 343e
00000160: 7a79 f13e 1430 ccbb f027 1cbe 2bf2 8e3e
00000170: 2780 a1bd c0cc 883d eb79 453e 5a61 51bd
00000180: aca8 4a3e b722 26bf e7a1 cb3d ae23 e63e
00000190: 8504 573e 2d8c 40be 029d e4bd 7212 b03d
000001a0: aba8 51be a4df 033f 0d6a c53c 5a36 12be
000001b0: 8438 3e3e f7e8 6b3b 1878 ca3e 891e c8bd
000001c0: d67e 503c af20 26be 8505 ad3e ab0f d3bd
000001d0: a188 563e 9485 49bb e44b 0cbe 2135 163e
000001e0: 59eb a4be c579 1e3e 23fd 0ebe 323d a6be
000001f0: 46e6 10bc 316b 5abe beb6 55be 030b a23d
00000200: 1987 7dbc 2524 883d 3fe9 1f3e 3494 703e
00000210: 4b9d 7cbe d3cc f33d 620c ddbd 2f96 093e
00000220: 1dcb 033e 8ddc 043c e1e4 53bd 5cc2 3f3e
00000230: 4718 3dbe 2e31 473e 1f9e bebe f499 8e3e
00000240: 1a1c 83bd 5a28 50bf def8 a3be 4607 b33e
00000250: 8883 f7be e07c 013f 5813 b23d 32b0 99be
00000260: 7927 92be f432 eabd 19b2 723b f9a3 e2be
00000270: 9cf0 703d 726b f53e 5950 923e 32b2 603e
00000280: 3e9a 95be 3d9e 273e 645b 403e fc6c d9bd
00000290: 861d f5bc f07a 0b3e c945 363e cc42 4c3e
000002a0: fc9e 40be b6f8 81be a04e 453e 92e9 84be
000002b0: dd5c 9abd d462 443f 8e00 f0be 791a ad3e
000002c0: cc2f ffbc 7721 f83c 491c 6f3e e8db e0be
000002d0: af58 58be 1e38 7cbd e3dd 963e e70d 3bbe
000002e0: 466a cc3d 6edc e8be 5fb4 e63e 87c5 653e
000002f0: 0985 273d 2f35 da3d 9293 b6be 4efa 0e3e
00000300: f184 883e 8e43 913d ad6d 593d 0851 dfbe
00000310: 5140 dfbd 8408 cf3e 0478 523e 0384 e73e
00000320: 6e45 7e3e 3c92 0dbf 62a2 c23e bb25 9b3e
00000330: 6412 383e 5cdc 213d 27b3 e3bd d978 cb3d
00000340: e0d3 92be 51ac 123e 9869 8b3e e25b 083f
00000350: 0ea5 473e 760f f23c a222 1d3e ebd8 93be
00000360: ca39 093e ced9 01bf ea01 6e3e 42e4 953e
00000370: bdaf 593e 2a3d 52bd 2ca9 ecbc f4a7 c33d
00000380: ff16 073e 7bb5 083e ba5c bf3d fa55 1e3f
00000390: f16f e83e 4eb2 9ebe affe 79be 5cfe 273f
000003a0: fbfb 1c3e dafb e1be a70d 69be 2874 a8be
000003b0: ab2c fc3e e47d 1abf c89a 4abd 5efa 8dbe
000003c0: a527 49bc 2f2e 31bd 52bd d8be b561 6a3e
000003d0: cb9b ddbe c0fe 46be 7daa 1e3e 83c3 2bbe
000003e0: fe77 bf3d a1e9 c2bd 5d27 2f3d f04a 1c3e
000003f0: 624e ddbc 4dba 0a3e 9336 8c3e 6e4e 9abe
-0.082520634 -0.49143994 -0.2788884 -0.25829828 -0.24655509 0.7444871 0.17814688 -0.34718063
-0.05424383 0.28661516 0.13842608 0.37649074 -0.12570874 0.18036063 0.09668708 -0.12895076
-0.16488676 0.4294422 0.40629593 0.27983484 -0.043376975 0.2388166 0.0019458513 -0.4640941
-0.13043216 -0.054269206 -0.37599593 0.058430348 -0.07471995 -0.129233 0.09241962 -0.120823875
0.07408987 -0.1675373 -0.2639703 0.073130876 0.5877403 0.066201515 -0.14103182 0.0086093
-0.37352467 0.106384814 0.19087619 -0.16750993 -0.036857404 -0.23859148 0.030776592 -0.18362822
0.4374656 -0.33276555 0.44887677 -0.23184074 -0.34040272 0.09682425 0.097795896 -0.33879486
-0.598272 0.08509956 0.30764943 -0.25838378 -0.20718217 -0.34746873 -0.48265213 -0.7075978
-0.117088094 -0.31692117 -0.1969468 -0.04998995 -0.41245836 -0.5781268 -0.31932375 -0.020925857
-0.84521115 -0.16906594 0.19680974 -0.36687073 0.4076177 0.23854148 -0.08340133 -0.0622632
-0.18152605 -0.12524724 -0.40004006 -0.27815753 0.18674028 0.47527453 0.12983109 0.17652878
0.47162992 -0.0062313173 -0.1524961 0.27919134 -0.07885771 0.06679678 0.1928479 -0.051118232
0.19790906 -0.6489672 0.0994299 0.44949096 0.20997818 -0.18803473 -0.11162759 0.08597268
-0.20474498 0.51513124 0.02409842 -0.14278546 0.18576247 0.0035997012 0.3954475 -0.09771449
0.012725553 -0.16223405 0.33793274 -0.10305723 0.20950557 -0.0030749785 -0.13700825 0.14668705
-0.32210806 0.15476139 -0.13963751 -0.32468563 -0.008843964 -0.21329953 -0.20870492 0.079122566
-0.015474104 0.06647519 0.1561632 0.23494035 -0.24669378 0.119043015 -0.107933775 0.13436197
0.1287045 0.008109224 -0.051731948 0.18726486 -0.18466292 0.19452354 -0.37230012 0.27851832
-0.06401844 -0.8131157 -0.32025808 0.34966487 -0.48342538 0.5058117 0.08695096 -0.3001724
-0.2854574 -0.114355 0.0037032424 -0.44265726 0.058823213 0.47933537 0.28576925 0.21942976
-0.2921924 0.16368957 0.18784863 -0.1061649 -0.029921304 0.13621116 0.17800058 0.19947356
-0.18810648 -0.25385064 0.19268274 -0.2595945 -0.075372435 0.767133 -0.46875423 0.3380926
-0.031150721 0.030289395 0.23350634 -0.43917775 -0.2112758 -0.061576955 0.2946616 -0.18267022
0.099812075 -0.45480675 0.45059487 0.22438632 0.040898357 0.10654675 -0.35659462 0.13962671
0.26663926 0.07092963 0.05308311 -0.4361651 -0.10900939 0.40436184 0.20553595 0.45217904
0.24831173 -0.5530126 0.38014513 0.30302224 0.17975765 0.03951679 -0.11118155 0.09935159
-0.28677273 0.14323546 0.27229 0.532652 0.19496557 0.029548388 0.15345243 -0.28876433
0.13400951 -0.5072297 0.23242918 0.2927571 0.21258445 -0.05132786 -0.028889261 0.09553519
0.13192366 0.1335048 0.09343858 0.6184994 0.45397905 -0.3099541 -0.2441356 0.65622497
0.15330498 -0.4413746 -0.22759114 -0.3290112 0.4925283 -0.60348344 -0.049464017 -0.27730078
-0.012277518 -0.043256935 -0.4233194 0.22888835 -0.43282923 -0.19433117 0.15494724 -0.167738
0.093490586 -0.095172174 0.04276215 0.15262961 -0.027014915 0.1354763 0.27385387 -0.30137962

features.0.norm.weight f4 [32]
00000000: bedf 763f 7e97 763f 9348 7c3f 71da 753f
00000010: 91e9 753f fb78 7b3f c315 7b3f 7f36 7a3f
00000020: 29fe 783f 4776 7d3f 4c19 7c3f 43c1 783f
00000030: 6721 783f 69be 803f 0519 7d3f 9928 7d3f
00000040: 3c42 7c3f f79a 783f 4f46 773f b632 763f
00000050: 9646 7d3f 2c3a 753f 5ecc 7e3f 99fe 783f
00000060: dcd9 7a3f 81f9 783f 523f 7a3f de74 733f
00000070: 0d14 7b3f b1f4 7c3f 2f84 7f3f 7074 773f
0.96435153 0.9632491 0.9854824 0.9603644 0.9605952 0.98231477 0.9808008 0.97739404
0.9726282 0.990086 0.984761 0.97169894 0.9692597 1.0058109 0.988663 0.9889007
0.98538566 0.9711146 0.9659166 0.9617113 0.9893583 0.9579189 0.9953059 0.97263485
0.9798868 0.9725571 0.9775287 0.951002 0.9807747 0.9881087 0.9981107 0.96662045

features.0.norm.bias f4 [32]
00000000: 17ce e03c 38b6 f73c 29fa 423c 1471 11bd
00000010: 5e86 0abd 6c01 533c b171 463c fd3a 24bc
00000020: 47de 99bc 288a 1c3c 0a32 5a3c b2bf ae3c
00000030: 559f e9bc 3273 333b 793e 413c 96b1 acba
00000040: 5da6 9d3b 6297 803c a8f5 edbc 99f1 f63c
00000050: df29 0ebc b7de 13bd f833 2239 9525 90bc
00000060: 8ed2 e1bb b438 49bc 9e42 843c cc62 39bd
00000070: 153f 54bb ea88 27bb 1624 593b 8d94 d63c
0.027442021 0.030238256 0.011900463 -0.03550823 -0.03381955 0.012878757 0.012112067 -0.0100238295
-0.018782748 0.009554423 0.013317594 0.021331642 -0.028518358 0.0027381894 0.01179468 -0.0013175483
0.004811092 0.015697185 -0.029047802 0.0301445 -0.008676975 -0.03610107 0.00015468884 -0.017596046
-0.006891555 -0.0122815855 0.016145047 -0.045260236 -0.0032386233 -0.0025563785 0.003313308 0.026193881

features.0.norm.running_mean f4 [32]
00000000: dbfa 973a 1b77 c2bb 2697 5fbd 7ece 4c3c
00000010: 12cf 67b9 7806 e4bb 203e cf3b f27c bb3c
00000020: bee9 8e3a c63f 9fbc 99ba 7d3b b276 a23c
00000030: bc0b 9d3c 4bc9 aabc 81f7 69bc 50c9 523c
00000040: add0 273b 187f 9f3b 22c2 6939 72ec 9fba
00000050: 8723 6abc 9057 94bb 47e6 103c b292 e2bb
00000060: 9c2e b43c 1924 0e3c f617 01bb ff96 263b
00000070: c1a7 193d 46be c83b e85d 86bc 5c17 3e3a
0.0011595146 -0.0059346086 -0.054587506 0.012500403 -0.00022107016 -0.006958779 0.0063245445 0.022886727
0.0010903401 -0.01943959 0.0038715957 0.019831989 0.019170634 -0.020847937 -0.014280201 0.012865379
0.0025606558 0.0048674457 0.00022292932 -0.0012201203 -0.014290697 -0.00452704 0.008843965 -0.00691446
0.021994881 0.008675599 -0.001969812 0.002541959 0.0375135 0.006126198 -0.0164022 0.00072514056

features.0.norm.running_var f4 [32]
00000000: dda7 fb3a 2fda 193b f090 543d 85c4 963b
00000010: 4db6 503a fae5 283b 40e4 243b 4724 303c
00000020: 9e7a 4b3b f1e5 013c 77bd 083b c9a4 3b3c
00000030: 47cd fa3b 3786 0c3c 8f68 cc3b bc1a 923b
00000040: d260 103a 51d9 af3a 9afb 983a b64b 913a
00000050: 04dc a13b ea96 b83b 02f5 793b 07fb 363b
00000060: d117 393c 7dad 033c b495 583a ea76 433b
00000070: 4521 cd3c 72f3 f83a c0bd 133c 578c 7e3a
0.0019199807 0.0023475995 0.051896036 0.0046010637 0.0007961735 0.0025771842 0.0025160462 0.010750837
0.0031048427 0.007928357 0.0020864883 0.011452862 0.0076538655 0.008576921 0.0062380503 0.0044587534
0.00055075914 0.0013416206 0.0011671663 0.0011085186 0.004939558 0.0056332247 0.003814042 0.002792062
0.011297182 0.008036968 0.00082620536 0.0029825517 0.025040278 0.0018993451 0.009017408 0.00097102433

features.denseblock1.denselayer1.norm1.weight f4 [32]
00000000: 0c61 803f a97e 793f 84b6 7f3f 6c0a 803f
00000010: 5f84 803f 7bb8 803f bee8 7f3f c044 803f
00000020: 5cf6 7f3f 1ed0 7e3f 1e75 7c3f 6db1 7f3f
00000030: 8c92 803f 34eb 7c3f 614f 803f d143 7b3f
00000040: d306 813f 25df 7e3f 82bb 7d3f b5ac 7f3f
00000050: c1ed 813f 9750 803f 6c00 803f c6d7 7f3f
00000060: 8405 813f 74f5 813f 5ded 7f3f d689 803f
00000070: 59ff 7d3f 3f9f 803f 3a29 813f 61e0 7e3f
1.0029616 0.97458893 0.9988787 1.000318 1.0040396 1.0056299 0.9996451 1.0020981
0.9998529 0.9953631 0.98616207 0.99880105 1.0044723 0.9879639 1.0024225 0.98150355
1.0080208 0.9955924 0.9911424 0.99872905 1.0150682 1.0024594 1.0000129 0.9993862
1.0079808 1.0153031 0.9997156 1.0042064 0.99217755 1.0048598 1.0090706 0.99561125

features.denseblock1.denselayer1.norm1.bias f4 [32]
00000000: 8262 9e3c dbb7 d0bc 108a 0d3a 3f30 93bc
00000010: 9493 8abc b3ce e9bb 8c21 603c 019a febc
00000020: b957 513c 3c9e b8bb 801c 42bb 29c4 30bc
00000030: b265 b5bc 2860 52bb 1631 193c df25 f7bc
00000040: ac55 eb3b b822 97ba 9178 c1bb 4c48 003b
00000050: 8a33 6b3c 27d4 afbc 4067 773c f980 bcb8
00000060: a58c 183b 4f5c 913c e3a5 033b d8d2 0dbc
00000070: c359 d6bc f09a 843b 97c4 f338 cd54 0e3c
0.019334082 -0.025478294 0.0005399296 -0.017967341 -0.016916074 -0.007135236 0.013679873 -0.031079294
0.012777262 -0.0056340974 -0.0029619038 -0.010788956 -0.022143219 -0.003210077 0.009350082 -0.030169426
0.0071818437 -0.0011530733 -0.005904265 0.0019574342 0.01435555 -0.021463467 0.0151003 -8.9885616e-05
0.002327719 0.017744211 0.002008789 -0.008656226 -0.026165849 0.0040467903 0.00011623761 0.00868721

features.denseblock1.denselayer1.norm1.running_mean f4 [32]
00000000: 6c74 fa3d d3e6 323e 116a 5b3e c111 2f3e
00000010: 9a09 ca3d 4668 303e f011 1f3e 10aa 423e
00000020: 7bd1 e33d d39c 4f3e 88f4 133e a67e 363e
00000030: c5c6 3f3e 389a 4e3e d423 413e 348e 3a3e
00000040: 1034 203e 6a48 253e 3a67 d03d 2e22 173e
00000050: 68b7 393e d4b0 bf3d f01d 273e f97e 143e
00000060: ccf3 3d3e a7c7 0d3e 7197 1b3e e943 ee3d
00000070: 5e1e 4d3e 4270 263e ca4c 393e 03e4 f53d
0.12229237 0.17470865 0.2142718 0.17096616 0.098651126 0.17227277 0.15534186 0.19010186
0.111239396 0.20274667 0.1444875 0.1782175 0.18728168 0.20176017 0.18861324 0.18218309
0.1564486 0.16140905 0.10175939 0.14759132 0.1813637 0.09359899 0.16320014 0.14501561
0.18550032 0.13845693 0.15194489 0.116340466 0.20031115 0.1625376 0.18095699 0.120063804

features.denseblock1.denselayer1.norm1.running_var f4 [32]
00000000: 0103 043f 5344 013e 3f78 e53b b769 4f3f
00000010: 68a8 cc3e e46d dd3d 48e5 4a3f 348a 5e3f
00000020: 4703 003f e74b 463c 6409 2a3f 87dd 593f
00000030: a83c 583f 625e 033c 7cfb 2f3d dde9 603f
00000040: 8cb7 233f 40a4 423f 7450 063f 2062 a83e
00000050: e023 ba3c 8d20 953e 4856 533f c2c8 243e
00000060: c7ad 5e3f 466d 313f 541c 853e 988c 183f
00000070: 5b42 5f3f 07d9 513f 591f 8b3d 981a ff3e
0.51567084 0.1262372 0.00700286 0.81020683 0.39972234 0.108119756 0.79256105 0.8692963
0.50005 0.0121030575 0.6642058 0.8510365 0.84467554 0.008018108 0.042964444 0.8785685
0.63951945 0.76031876 0.5246651 0.32887363 0.022722185 0.29126397 0.8255353 0.16092208
0.86983913 0.69307363 0.25998175 0.5958953 0.87210625 0.8197178 0.067930885 0.49824977

features.denseblock1.denselayer1.conv1.weight f4 [16, 32, 3, 3, 3]
00000000: 87c1 f43b 2796 de3c b551 593d 65de 5bbd
00000010: 8846 a0bc 374f 15bd bf4c 383c 5462 8abd
00000020: f318 6e3d 8ba9 9bbd a881 85bd 10ba 213c
00000030: 411f 823d 66db 48bd 69c2 2b3d 140b 503c
00000040: 9195 363d 3873 7b3c 7026 e6bb 2e79 703c
00000050: 2f19 69bd 710a 143d adc9 bf3c 9b6d 263c
00000060: 81cc 033d 381b 1c3d 6f40 5cbb 9dcc 7b3a
00000070: d2ee 03bc c193 03be 19dc 94bd e8da 9ebc
00000080: 993c dd3c bab0 10bc 3d0c e93c 1ab1 6bbd
00000090: 814f 913d 8339 023c d667 9fbd d5b1 733d
000000a0: fc04 433b 12b2 bcbc ee34 3dbc e9cb 9dbd
000000b0: 9c41 f53c a17e c2ba d1dc 473b 819d e63c
000000c0: 14d2 ac3d f6e4 8ebd 014d d13c dc02 d23d
000000d0: ecb1 92bd 118e d3ba 4ece 4f3d 0270 803d
000000e0: 3234 983d 55c4 003d fc4b 80bb a2f1 35bd
000000f0: eaf9 873c 4f67 e43b f428 efbc 6601 0f3d
00000100: 398f 5f3b 2cd4 273c 56b8 64bd 0884 093d
00000110: 6090 0d3d 804f 083d fe8c 2f3c fc0e 913d
00000120: 36aa 513d 5355 393d 067e 253b 9ac4 223d
00000130: be47 a0bb 7186 543d 5686 0dbc 2fb0 e53d
00000140: 067f ad3c c4a6 773d 6b6b 133d 4669 3a3c
00000150: 4e03 93bd 12b2 0abe 61f5 f0bc 37e3 9abd
00000160: 63df acbd bb08 bd3c f922 173d d91f ecbc
00000170: 0608 45bd 7d2a abbd 622c 86bc eb7e 173d
00000180: 3543 893b ecbc 473b 4210 91bd 3f69 94bc
00000190: cebe 003b d973 7abd 332e eabc 3f5b 8f3b
000001a0: 5656 283d ef6a bbbc 5626 42bd d514 613d
000001b0: a657 7cbd bd1f 5bbc 79dc 01bd b670 9c3c
000001c0: d2a9 e03d 83eb 0a3d ce00 9b3d 3c1c 853c
000001d0: 657c febc 9546 1fbb b402 db3d 22f2 edb8
000001e0: b917 9a3d 6af0 45bd 669b 94bd 0d16 a1bc
000001f0: b6a6 263c 1fcd 643d 701c 98bc 7999 a63d
00000200: c103 363b 8885 f9bb 7795 a7bc da09 8c3c
00000210: b90f 213d 807b 44bb bbc6 11bc 75ed 7fbd
00000220: ac80 a1bc ea2a afba 13c0 903c 5322 85bc
00000230: eb6e 403d b7b3 fbbc 7822 8bbc 5baa 80bd
00000240: dece 503c 6e00 8f3c a323 a7bc f19f 4e3d
00000250: e92e c5bd 014a dabd f712 59bd eabe c03c
00000260: 0266 22be 6175 2abd a257 d4bc 4405 3ebd
00000270: a6ed 883b 3401 0cbd e0eb 60bd bd01 73bd
00000280: 4ba3 d0bc d5fc 7ebd c3fa aebc 2532 54bc
00000290: bb40 f1bc 8ff0 94bd fb00 61bd 54d8 4dbb
000002a0: 0214 02bc c4f1 a8bd 4354 4f3c a0c1 5aba
000002b0: 5881 893d 2042 593d d412 c63d e178 023d
000002c0: 42f7 95bc 0cf7 903d 6197 1cbd ce40 febc
000002d0: db5e 3a3d 45b5 b1bd c177 a9bc 2401 1f3d
000002e0: f50d a0bd df0c 09bd 9925 d0bd accf 39bd
000002f0: 8dd4 3bbd a125 1cbd 9f9b 8a3d c1ba 7cbd
00000300: 88ee 24bc a54d 963d 3ded 493d cb43 a33d
00000310: aad6 db3c 1472 33bd e8f9 9d3d 4285 1e3d
00000320: 68f8 c73c eb45 803c a915 7a3c 86de 9fbd
00000330: afe2 ef3c df2b 9d3b 3de8 1b3d 93aa 9c3c
00000340: 27ee 9ebd dc85 e33b 4ebf b6bc 5e8a 97bb
00000350: eaf6 a0bc f3b5 5abd 0a11 9abb be5d 793b
00000360: 8359 8a3b af54 b7bc 954c 81bd 1cd2 7d3d
00000370: 2e8f 24bd e391 1b3b 086c f13c b8a9 32bd
00000380: ea75 103c c821 043d 629b 9bbd cd3b 27bd
00000390: eacc eebc 456b dbba 87af 80bc 39ac dcbd
000003a0: ed4c e53c 3a9f 5ebd bb9d 8fbb b63d c53c
000003b0: bb33 61bd efa3 d53c ec52 d9bc 68ad 00bd
000003c0: 641d 27bd 6777 233d 5a09 bebd 23c5 1ebd
000003d0: 4268 8fbd 715e d0bb ba89 e03c d02b 01be
000003e0: 533f 16bc 9161 56bc 4f75 923b ea98 9c3c
000003f0: 069a 3cbd d311 b13c 72f1 45bd 01c7 513d
0.0074693593 0.027171208 0.053056438 -0.05367889 -0.019564882 -0.0364525 0.011248766 -0.06757036
0.058129262 -0.07600697 -0.065188706 0.009871021 0.063536175 -0.04903736 0.04193345 0.012697954
0.04457623 0.0153472945 -0.007023625 0.014677329 -0.056908783 0.03614277 0.023411596 0.010157968
0.032177452 0.038111895 -0.0033607741 0.000960538 -0.008052545 -0.12849332 -0.07268543 -0.019391492
0.027006434 -0.008831197 0.028448218 -0.057541944 0.07095242 0.007948282 -0.07783477 0.059495766
0.002975761 -0.02303413 -0.011548264 -0.077049084 0.029938512 -0.0014838764 0.0030496607 0.028151276
0.08438507 -0.069772646 0.025549414 0.10254452 -0.07162842 -0.0016140362 0.050733857 0.06271364
0.074318305 0.031437237 -0.003915308 -0.044419892 0.01659866 0.006970323 -0.029194333 0.034913443
0.0034112467 0.010243457 -0.05583986 0.03357318 0.034561515 0.033278942 0.0107147675 0.07082936
0.051187716 0.045247387 0.0025252118 0.039738275 -0.004891365 0.051886026 -0.008637985 0.11215245
0.021178734 0.060461774 0.035991114 0.011377638 -0.07178365 -0.13544491 -0.02941388 -0.07562869
-0.08441045 0.023075452 0.036898587 -0.02882378 -0.048103355 -0.08357713 -0.016378585 0.036986273
0.00418892 0.0030477596 -0.07083179 -0.018116591 0.0019644978 -0.061145637 -0.028586483 0.004374891
0.04109796 -0.022878138 -0.04739984 0.054951508 -0.061607026 -0.013374266 -0.0317044 0.019096714
0.10969891 0.033916008 0.07568513 0.016248815 -0.031065175 -0.0024303545 0.10693875 -0.000113461414
0.07524056 -0.04832498 -0.072562024 -0.019663835 0.010171583 0.05585968 -0.018568248 0.08134741
0.0027773234 -0.007614795 -0.020457013 0.017094541 0.039321635 -0.0029980838 -0.008897479 -0.062482316
-0.019714676 -0.001336423 0.017669713 -0.016251719 0.04698078 -0.030725343 -0.01698421 -0.06282493
0.0127446335 0.01745626 -0.020402735 0.0504455 -0.09628088 -0.106586464 -0.052996602 0.023528535
-0.15859225 -0.041615847 -0.025920693 -0.04639174 0.0041787205 -0.034180835 -0.054912448 -0.05932783
-0.02546849 -0.06225284 -0.021359807 -0.0129514085 -0.029449811 -0.072724454 -0.054932576 -0.003140946
-0.007939341 -0.08249238 0.012654367 -0.00083448924 0.067141235 0.053041577 0.0967156 0.03185356
-0.018306378 0.070783705 -0.038230304 -0.03103676 0.045500617 -0.086771525 -0.020686986 0.038819447
-0.07815162 -0.03345954 -0.10163421 -0.045364067 -0.045857 -0.038121823 0.067679636 -0.06170154
-0.010066636 0.07339028 0.049298514 0.07971915 0.026835758 -0.043809965 0.077136815 0.038701303
0.024410442 0.01565834 0.015263953 -0.07806115 0.029282896 0.0047964896 0.038063277 0.019124305
-0.07760268 0.0069434475 -0.022308018 -0.004624649 -0.019648988 -0.053396177 -0.0047017382 0.003805026
0.0042220964 -0.022379247 -0.06313435 0.061967954 -0.04017561 0.0023738078 0.029470459 -0.043618888
0.008817175 0.03225878 -0.07597996 -0.040828515 -0.029150445 -0.0016740343 -0.015708698 -0.10775036
0.027990783 -0.05435107 -0.0043828166 0.024077278 -0.054980975 0.026079146 -0.026528798 -0.031415373
-0.040799513 0.039908793 -0.092791274 -0.038762223 -0.070023075 -0.0063589145 0.027409423 -0.1261437
-0.009170371 -0.013084785 0.0044695507 0.019115884 -0.046045326 0.021614945 -0.048325963 0.051215176

features.denseblock1.denselayer2.norm1.weight f4 [48]
00000000: 84d9 7c3f 5cd4 7c3f ab91 7c3f 6eb6 7d3f
00000010: acb6 803f 2a47 813f f506 7e3f 50e9 7e3f
00000020: 4d74 803f 0847 7e3f f31a 803f 24e4 7d3f
00000030: 56da 7f3f bb0a 813f 7160 7e3f a9ed 7f3f
00000040: 0935 7f3f d03c 803f eddf 7e3f 29cb 7c3f
00000050: 8474 823f d188 813f 4689 7f3f 63fd 813f
00000060: 1192 803f 121d 803f ab54 7e3f 4eb0 823f
00000070: 6d0f 803f 7961 7f3f 1c97 803f 0947 7e3f
00000080: 199e 7f3f d36e 7f3f a3b5 7e3f ebb7 803f
00000090: 2930 7f3f e141 7d3f 5156 7e3f 43d7 803f
000000a0: 0534 803f 48d9 7e3f 7158 803f b264 803f
000000b0: 2244 803f f95a 7e3f ab24 803f 1485 7e3f
0.987694 0.98761535 0.9865977 0.9910649 1.0055747 1.0099843 0.99229366 0.99574757
1.0035492 0.99327135 1.0008224 0.9917624 0.9994253 1.00814 0.9936591 0.99972016
0.996903 1.0018559 0.99560434 0.987475 1.0191808 1.0119878 0.9981884 1.0155452
1.0044576 1.0008872 0.99347943 1.0210054 1.0004708 0.99758106 1.0046115 0.9932714
0.9985061 0.9977848 0.99495906 1.0056127 0.9968286 0.9892865 0.9935046 1.0065693
1.0015875 0.99550295 1.002699 1.003073 1.0020792 0.99357563 1.001119 0.9942181

features.denseblock1.denselayer2.norm1.bias f4 [48]
00000000: 566a edbb 46ad 293a cc5e 3bbc 87de cabc
00000010: 85cb c43a 9031 2fbb 0809 bebc 68b0 73bc
00000020: d156 a039 1bb7 ad3b f438 653c 2f91 95bc
00000030: 666f dc3b be05 503c e9f4 233c 8fea 24bb
00000040: d0e1 0fbc ff39 6db9 795e 03bc 6985 063c
00000050: dbb4 b43b b09d 80ba d633 febb d184 b23c
00000060: 478a c6bb bed8 50bc fe25 8a3b 645e c4bb
00000070: 03ed 4dbc b0f2 2bbc 4643 8c3c 297b d3bc
00000080: f9d7 88bb b0fa 9fbb e91b 83bc 0e85 0c3a
00000090: bb2b ca3a 2796 fabb 71c1 38bb 96f2 cd3b
000000a0: 52dc 72bb 258a 08bb aaaa 6bbb 5a30 80bc
000000b0: d18e 013a 0339 af3b d18d 7dbc dbee 483b
-0.0072453422 0.0006472658 -0.011436176 -0.024764312 0.0015014267 -0.0026732422 -0.023197666 -0.0148736015
0.0003058226 0.005301369 0.013990629 -0.018257705 0.006727147 0.012696682 0.010007122 -0.0025164222
-0.008781865 -0.00022623687 -0.0080181295 0.008210518 0.0055147237 -0.000981262 -0.007757644 0.021791847
-0.0060589644 -0.012746988 0.004215955 -0.0059926976 -0.012568715 -0.010494873 0.017121922 -0.025815563
-0.0041761366 -0.004882179 -0.01600452 0.0005360403 0.001542441 -0.007647294 -0.0028191472 0.006285022
-0.003705759 -0.0020834294 -0.0035959878 -0.015648056 0.0004942241 0.0053473725 -0.015475706 0.0030659947

features.denseblock1.denselayer2.norm1.running_mean f4 [48]
00000000: 6c74 fa3d d3e6 323e 116a 5b3e c111 2f3e
00000010: 9a09 ca3d 4668 303e f011 1f3e 10aa 423e
00000020: 7bd1 e33d d39c 4f3e 88f4 133e a67e 363e
00000030: c5c6 3f3e 389a 4e3e d423 413e 348e 3a3e
00000040: 1034 203e 6a48 253e 3a67 d03d 2e22 173e
00000050: 68b7 393e d4b0 bf3d f01d 273e f97e 143e
00000060: ccf3 3d3e a7c7 0d3e 7197 1b3e e943 ee3d
00000070: 5e1e 4d3e 4270 263e ca4c 393e 03e4 f53d
00000080: 8183 07bf 347c 8f3d baae bdbd 5f97 01bf
00000090: 4f39 c7be 623d c4be 37fa b5be abbb 65be
000000a0: 4020 c1be eeab 13bf c7bb adbe 7eef 40bd
000000b0: 9301 72be 0859 abbe 02b1 04bf 004c 5fbe
0.12229237 0.17470865 0.2142718 0.17096616 0.098651126 0.17227277 0.15534186 0.19010186
0.111239396 0.20274667 0.1444875 0.1782175 0.18728168 0.20176017 0.18861324 0.18218309
0.1564486 0.16140905 0.10175939 0.14759132 0.1813637 0.09359899 0.16320014 0.14501561
0.18550032 0.13845693 0.15194489 0.116340466 0.20031115 0.1625376 0.18095699 0.120063804
-0.52935034 0.07006112 -0.09261842 -0.506216 -0.3891091 -0.3832808 -0.3554246 -0.22434871
-0.37719917 -0.5768422 -0.33932325 -0.047103398 -0.23633413 -0.33466363 -0.5183259 -0.21806335

features.denseblock1.denselayer2.norm1.running_var f4 [48]
00000000: 0103 043f 5344 013e 3f78 e53b b769 4f3f
00000010: 68a8 cc3e e46d dd3d 48e5 4a3f 348a 5e3f
00000020: 4703 003f e74b 463c 6409 2a3f 87dd 593f
00000030: a83c 583f 625e 033c 7cfb 2f3d dde9 603f
00000040: 8cb7 233f 40a4 423f 7450 063f 2062 a83e
00000050: e023 ba3c 8d20 953e 4856 533f c2c8 243e
00000060: c7ad 5e3f 466d 313f 541c 853e 988c 183f
00000070: 5b42 5f3f 07d9 513f 591f 8b3d 981a ff3e
00000080: 91c4 fe40 e0a0 1940 671f 7c40 478e 8d40
00000090: 7e86 7340 1aee 6a40 2d50 1940 f8ba d63f
000000a0: d877 b240 c045 cd40 1221 3140 849f cf3f
000000b0: e518 c140 23bf 9440 6ffd ab40 47c6 f23f
0.51567084 0.1262372 0.00700286 0.81020683 0.39972234 0.108119756 0.79256105 0.8692963
0.50005 0.0121030575 0.6642058 0.8510365 0.84467554 0.008018108 0.042964444 0.8785685
0.63951945 0.76031876 0.5246651 0.32887363 0.022722185 0.29126397 0.8255353 0.16092208
0.86983913 0.69307363 0.25998175 0.5958953 0.87210625 0.8197178 0.067930885 0.49824977
7.961495 2.400444 3.9394166 4.423618 3.8050838 3.6707826 2.3955185 1.6775808
5.5771294 6.4147644 2.7676435 1.6220555 6.034289 4.648332 5.3746867 1.896676

features.denseblock1.denselayer2.conv1.weight f4 [16, 48, 3, 3, 3]
00000000: 0ea6 b5bd 065c 93bc 1442 b33d 1afb 3b3c
00000010: 8cd9 653d 9ac8 793d e958 70bd 7513 5ebb
00000020: a716 a83a 5f45 1f3d 2afc 91bc 0bc6 d2bc
00000030: 0096 04bc a157 74bd 1299 3c3d 56ce 8e3c
00000040: f263 20bc 4678 a9bd 4632 0f3c 5d46 263d
00000050: 41c6 25bd 9463 0f3d 5664 67bd eb03 b2bc
00000060: 79b7 9b3c cddc 483c b4d3 ecbc f376 a8bc
00000070: 9a34 a53d fd49 bbbc 28c3 1a3c acba 92bc
00000080: bf15 7c3b 3209 01bd 2830 653c 8906 83bd
00000090: f2bf dcbb 7584 a93c 49a8 1a3d b700 bcbc
000000a0: e879 22bc 10df 42bd 7596 14ba f79d 82bc
000000b0: fb37 3d3c 93da f2bc 0daa 9a3d fea2 33bc
000000c0: 7cdf 2c3d ac87 433d 84de 0e3b a1b2 77bb
000000d0: 8944 efbc 00eb 933c 2dce 41bc bc50 d23c
000000e0: 6d79 87bc 6120 eb3c 8228 e839 117e 233d
000000f0: d606 2f3c a1ac c8bc 3a69 01bd 9367 b93d
00000100: e34f 4e3d b740 0bbd 2bc2 513d 6e7b 763d
00000110: 1be4 a53c fc7f 56bd c236 463d b78b 98bc
00000120: 8cdf b1b9 0597 1f3d 120e 73bd c50b 7dbd
00000130: 2182 303d 8ffe 22bd 6aeb c73d 6f90 84bd
00000140: 1323 c0bb 7ea8 96bd ed76 01bc b9d9 053d
00000150: e2bd 8dbc b7aa 723d ffaa a4bc b090 143d
00000160: 86af 7b3c 6c50 313d 70c8 e8bb 9840 48bb
00000170: d812 50bd c212 60ba 3c0e 953d 7827 00bd
00000180: 6d45 7d3c c558 293d 0b2e 10bc 0a8c 02bd
00000190: 9b71 ae3d c73b 8a3d e55f fcbb fafa 0a3b
000001a0: 4134 343c 3ba1 003c ca0d 7cbc 2c5c 583c
000001b0: 2130 5dbd 04da d0bc 8b84 2a3d 749b 5abc
000001c0: d7bf d6bb 1430 87bb 9037 b93c dd59 0cbd
000001d0: 87ab 5bbd fd4a f4bb 99da 4a3d 6107 363d
000001e0: 4ded 9fbc 4ceb 5a3c 9522 68bd d93a 61bc
000001f0: f45b 0a3d 3c8d 3abc c161 f43c 6e05 26bb
00000200: 7173 27bd ddc5 03bd e9d4 1bbd 7fe6 80bc
00000210: 5012 19bd 3fb6 66bd 6230 32bd 6f9b acbd
00000220: d37a 8b3b df29 56bd 9741 74bd 5db9 43bd
00000230: f04a 0a3d d453 72bc 5fee 25bd bc4c edbc
00000240: 62f7 c1bc 4f7b 9dbd af2e e23a 7c5d 45bd
00000250: 5245 6ebd bb34 9a3c 54ad 343c 8816 38bc
00000260: 8259 0e3d 3bfd c73a 72f1 e5bc 400c 8d3d
00000270: 7a50 d7bb f174 203c 3766 383b 5e6e 0ebd
00000280: fad8 81bd a13c c43c e2bd 4e3d de59 1a3d
00000290: 3b92 58bd d956 d5bc 1ffb 2d3d ce03 b93d
000002a0: 2625 e6bc ad79 553d 1905 063d 8371 00bc
000002b0: c34b 38bd a83f 9e3c 3628 0cbd d68c 073b
000002c0: 1fbc 9b3c 2496 993d cce8 ec3c 0977 22bd
000002d0: 05bf aabc 6a17 433c a63f 7a3d 96ad c1bc
000002e0: e5e0 eb3c c175 c7bb b49c e7bc 0562 973d
000002f0: 56ab 8cbc 12e7 15bb 601d 03ba d1e6 95bc
00000300: 9261 003d fb7d c93c 7e4a d3bd 7182 c4bc
00000310: a112 563d ae89 313d 3dbb bd3c 8d8a 80bc
00000320: 3b96 b4bb f577 813c 6de6 77bd e594 80bd
00000330: 848f 9cbc 8264 b43c 4062 3c3d 1538 3d3c
00000340: 3ae9 913c c77b 5cbd 50d2 63bc 179c 983d
00000350: ee0b 893d 6e96 06bd 660f fcbc 4cff 9ebb
00000360: 79e8 ad3c a8c9 a73b 45c0 033d b376 f43c
00000370: 3132 ce3a ab43 ecbc dada 52bd de76 afba
00000380: 76ba babd 5b48 92bc ef52 743c 0998 f83c
00000390: c3d5 6fbd 546a c63c 3453 af3d 2215 df3b
000003a0: 71fc 56bd 7701 09bd dab4 0b3c 51d9 7c3d
000003b0: 56b0 6eba c057 8ebd 2fd3 1ebc bad5 0c3c
000003c0: 8903 20bd 9c4b 293c 7031 ceba 6e38 31bd
000003d0: dcef 473d 2075 b9bc e12c 33bd 9ffd 713c
000003e0: c538 a33b d538 683d 70ae d8bc ccae 0a3d
000003f0: 802b 1fbd 2361 de3c ff98 493d 1814 663d
-0.08869563 -0.017988216 0.08752838 0.0114734415 0.056115672 0.060982324 -0.05867854 -0.003388611
0.0012824134 0.038884517 -0.017820437 -0.0257292 -0.008092403 -0.059653882 0.046044417 0.017432373
-0.009789454 -0.082748935 0.008740013 0.040594447 -0.040472273 0.035007074 -0.056492172 -0.021730384
0.019008385 0.012259674 -0.028909542 -0.020564532 0.080666736 -0.022862429 0.009445943 -0.017911278
0.003846511 -0.03150291 0.013988532 -0.06397731 -0.006736749 0.020693043 0.037758145 -0.02294956
-0.00991676 -0.04757601 -0.0005668172 -0.015944464 0.011548991 -0.02964524 0.07551966 -0.010964153
0.04220532 0.04773681 0.002180011 -0.003779568 -0.029207485 0.018056393 -0.011828941 0.025673263
-0.016537393 0.028701963 0.0004428067 0.03991515 0.010682782 -0.024496378 -0.031594492 0.09052958
0.050369155 -0.033997264 0.051210564 0.060176305 0.02025037 -0.05236815 0.048392065 -0.018621309
-0.00033926626 0.038962383 -0.05933959 -0.061778802 0.04309285 -0.039793547 0.097616985 -0.06472861
-0.005863556 -0.07356356 -0.007901889 0.03267834 -0.017302457 0.059244838 -0.020101069 0.036270797
0.015361672 0.043289587 -0.007103972 -0.003055608 -0.05079922 -0.0008547717 0.072781056 -0.03128764
0.015458447 0.041344423 -0.00880004 -0.031871833 0.08517762 0.06749683 -0.007701861 0.0021206723
0.010998786 0.00785094 -0.015384147 0.013205569 -0.054000977 -0.025494583 0.04163031 -0.013342727
-0.006553631 -0.0041256044 0.022609502 -0.034265388 -0.053630378 -0.0074552284 0.049524877 0.04444063
-0.019522334 0.013361763 -0.056673605 -0.0137469405 0.0337791 -0.011386212 0.029831769 -0.0025332826
-0.040881578 -0.03217112 -0.038044844 -0.01573491 -0.03737098 -0.056326147 -0.043503173 -0.08428084
0.004256585 -0.052286025 -0.059632864 -0.047784198 0.033762872 -0.014790494 -0.04051053 -0.028967254
-0.023677532 -0.07689535 0.0017256344 -0.048184857 -0.058171578 0.018823972 0.011027653 -0.011235841
0.03475333 0.0015257964 -0.028069232 0.06887102 -0.006570873 0.009793506 0.0028137097 -0.034773223
-0.06340213 0.023954691 0.050474055 0.03768336 -0.05287383 -0.026042389 0.042475816 0.09033929
-0.028093886 0.052117992 0.032719705 -0.007839563 -0.044994127 0.019317463 -0.034218036 0.002068331
0.019010602 0.0749934 0.0289196 -0.039664302 -0.020843038 0.011907438 0.061095856 -0.023642343
0.028793762 -0.0060870354 -0.028272964 0.073917426 -0.017171543 -0.0022873324 -0.00050016306 -0.018298538
0.03134305 0.024596205 -0.10316943 -0.02398798 0.05226386 0.043344192 0.023160571 -0.015691066
-0.005511073 0.01580427 -0.060522486 -0.062783994 -0.019111402 0.022020582 0.045992136 0.0115490155
0.017811406 -0.05382898 -0.013905123 0.07451647 0.066917285 -0.032858305 -0.030769061 -0.004852211
0.021229016 0.005120475 0.032165784 0.029841756 0.0015731511 -0.02884086 -0.051478244 -0.0013386866
-0.09117596 -0.017856767 0.014912351 0.030345934 -0.05855347 0.024220623 0.085607916 0.006807939
-0.05248684 -0.033448663 0.008527005 0.061730687 -0.00091052556 -0.06950331 -0.009693905 0.008595878
-0.03906587 0.010332968 -0.0015731286 -0.043266706 0.048812732 -0.022638857 -0.04374397 0.014769941
0.0049811327 0.056694824 -0.026450366 0.033858106 -0.038859844 0.027145928 0.049218174 0.056171507

features.denseblock1.denselayer3.norm1.weight f4 [64]
00000000: 62a8 7d3f 542a 783f 5ae2 7e3f 2ca1 7f3f
00000010: a9db 7e3f d824 813f f805 7c3f dfcd 7f3f
00000020: 3d38 7f3f c782 813f ba02 7f3f 47c7 7e3f
00000030: 50dc 7e3f 549d 823f 3702 7f3f 0dea 7f3f
00000040: 5548 803f 5085 803f de3a 7c3f c1eb 7f3f
00000050: 4ea9 823f 273a 813f b6ff 7d3f 6024 803f
00000060: dacf 7f3f 2e39 803f 4c7a 7d3f 1b2b 813f
00000070: c3b9 7f3f 618d 803f 5932 7f3f 95c7 7e3f
00000080: 92b5 7e3f 1d32 7e3f 1342 7f3f 08e7 803f
00000090: 554f 813f aae3 803f 538c 7e3f e858 803f
000000a0: f917 813f a778 803f 65d6 7e3f 4636 7f3f
000000b0: 1cea 7e3f bd10 803f 56c6 7f3f a022 7f3f
000000c0: e7ea 7f3f 205f 813f 8903 803f 81e2 7f3f
000000d0: 831d 7f3f 2baf 803f b91c 823f 7ba1 7e3f
000000e0: 67e7 7f3f 6e0c 803f b03e 7f3f ecdd 7d3f
000000f0: 0444 803f dd63 813f 3f10 7e3f d3fd 803f
0.99085057 0.9693959 0.99564135 0.99855304 0.99553925 1.0089369 0.9844661 0.9992351
0.9969519 1.0118035 0.99613535 0.99522823 0.9955492 1.0204263 0.99612755 0.9996651
1.0022074 1.0040684 0.98527324 0.99969107 1.0207918 1.0095872 0.9921831 1.0011101
0.9992653 1.001745 0.99014735 1.009128 0.99892825 1.0043145 0.996862 0.9952329
0.99495804 0.99295217 0.99710196 1.0070505 1.0102335 1.0069478 0.9943287 1.0027132
1.0085441 1.003682 0.9954589 0.9969219 0.9957597 1.0005108 0.9991201 0.9966221
0.9996781 1.0107155 1.0001079 0.9995499 0.99654406 1.0053457 1.0165015 0.9946515
0.99962467 1.0003793 0.9970503 0.9916675 1.0020757 1.0108601 0.9924354 1.0077461

features.denseblock1.denselayer3.norm1.bias f4 [64]
00000000: 5ba3 acbb 1a09 4bbc 4367 5abb d185 2bbc
00000010: b2ea 60bc d185 023d a0dd 19bd 56c4 7f3c
00000020: 268d 0f3b 1108 323c c2be 86bc 5a84 6d3c
00000030: 52bb c4bc 3f65 573c 4f65 88ba d192 143b
00000040: 65f1 07bc b5e5 353c 2e1f 1ebd badb 133c
00000050: 9245 5fbb 471c c3bc b85a 27bc d149 66bc
00000060: 6394 2dbc 1cd3 78bc 1580 873b 7c50 0dbd
00000070: 605c d8ba 7152 4c3c 4324 033c c26c d03c
00000080: 2dbf 9f3a 2ffd 8dbb 1943 843c 98bc 1abc
00000090: bcdd 083c 5ce9 7fbb 960b 13bb 5732 7cba
000000a0: 68c4 0c3b 0c7c ae3b 3caa 39bc e995 85bc
000000b0: b1c5 0e3b e062 9a3b ffaf 2fbc a503 29bb
000000c0: 1527 0a3b ade8 46bb b45e ebbb f0cf 2abb
000000d0: 0abe 1aba dab2 47bb 50d1 fbba 7769 38bc
000000e0: bda3 e4bb 0e2e 683b aee0 0fbb 481f 49bb
000000f0: e2ce b2b9 9b0b 323b bbb4 91bc 1a58 fd3b
-0.005268497 -0.012392307 -0.003332571 -0.010468916 -0.013727831 0.0318659 -0.037564874 0.015610775
0.00219042 0.010866181 -0.016448382 0.014496887 -0.024015103 0.013146698 -0.0010406169 0.0022670517
-0.008297299 0.01110213 -0.038603954 0.009024555 -0.0034068567 -0.023817195 -0.0102145 -0.014055685
-0.01059446 -0.015187051 0.0041351416 -0.034500584 -0.0016507022 0.012470827 0.008004251 0.025442485
0.0012187712 -0.0043331604 0.016145276 -0.009444378 0.008353647 -0.0039049005 -0.0022437326 -0.00096205383
0.0021479372 0.005324846 -0.011332091 -0.016306834 0.0021785314 0.004711494 -0.010723113 -0.0025789526
0.0021080424 -0.0030351088 -0.0071829204 -0.0026063882 -0.0005902952 -0.0030471594 -0.001921216 -0.0112556135
-0.006977527 0.0035427841 -0.0021953988 -0.003068881 -0.00034104945 0.0027167562 -0.017786374 0.00773145

features.denseblock1.denselayer3.norm1.running_mean f4 [64]
00000000: 6c74 fa3d d3e6 323e 116a 5b3e c111 2f3e
00000010: 9a09 ca3d 4668 303e f011 1f3e 10aa 423e
00000020: 7bd1 e33d d39c 4f3e 88f4 133e a67e 363e
00000030: c5c6 3f3e 389a 4e3e d423 413e 348e 3a3e
00000040: 1034 203e 6a48 253e 3a67 d03d 2e22 173e
00000050: 68b7 393e d4b0 bf3d f01d 273e f97e 143e
00000060: ccf3 3d3e a7c7 0d3e 7197 1b3e e943 ee3d
00000070: 5e1e 4d3e 4270 263e ca4c 393e 03e4 f53d
00000080: 8183 07bf 347c 8f3d baae bdbd 5f97 01bf
00000090: 4f39 c7be 623d c4be 37fa b5be abbb 65be
000000a0: 4020 c1be eeab 13bf c7bb adbe 7eef 40bd
000000b0: 9301 72be 0859 abbe 02b1 04bf 004c 5fbe
000000c0: 5be9 12bf 28d7 a7bd 6b8a d6be 0f4d 04be
000000d0: 54b2 8ebe 0e9e e1be 168e b1be 23e9 9cbd
000000e0: b217 62be 8d20 57bf 088b b6be 3180 14bd
000000f0: 78a9 cabe 44bd 89be e0b6 12bf 50df b9be
0.12229237 0.17470865 0.2142718 0.17096616 0.098651126 0.17227277 0.15534186 0.19010186
0.111239396 0.20274667 0.1444875 0.1782175 0.18728168 0.20176017 0.18861324 0.18218309
0.1564486 0.16140905 0.10175939 0.14759132 0.1813637 0.09359899 0.16320014 0.14501561
0.18550032 0.13845693 0.15194489 0.116340466 0.20031115 0.1625376 0.18095699 0.120063804
-0.52935034 0.07006112 -0.09261842 -0.506216 -0.3891091 -0.3832808 -0.3554246 -0.22434871
-0.37719917 -0.5768422 -0.33932325 -0.047103398 -0.23633413 -0.33466363 -0.5183259 -0.21806335
-0.5738732 -0.08195335 -0.4190248 -0.1292002 -0.2787043 -0.440659 -0.34678715 -0.07661655
-0.22079352 -0.84034044 -0.35652947 -0.036255065 -0.3958242 -0.2690221 -0.57310295 -0.36303186

features.denseblock1.denselayer3.norm1.running_var f4 [64]
00000000: 0103 043f 5344 013e 3f78 e53b b769 4f3f
00000010: 68a8 cc3e e46d dd3d 48e5 4a3f 348a 5e3f
00000020: 4703 003f e74b 463c 6409 2a3f 87dd 593f
00000030: a83c 583f 625e 033c 7cfb 2f3d dde9 603f
00000040: 8cb7 233f 40a4 423f 7450 063f 2062 a83e
00000050: e023 ba3c 8d20 953e 4856 533f c2c8 243e
00000060: c7ad 5e3f 466d 313f 541c 853e 988c 183f
00000070: 5b42 5f3f 07d9 513f 591f 8b3d 981a ff3e
00000080: 91c4 fe40 e0a0 1940 671f 7c40 478e 8d40
00000090: 7e86 7340 1aee 6a40 2d50 1940 f8ba d63f
000000a0: d877 b240 c045 cd40 1221 3140 849f cf3f
000000b0: e518 c140 23bf 9440 6ffd ab40 47c6 f23f
000000c0: e00f bc40 60e2 f43f e792 a040 7a79 c03f
000000d0: c5c9 3340 f4c6 1040 a3bc 0840 2e8b c23f
000000e0: 9ea5 ff3f 1d60 0941 26fb ef3f 5a56 913f
000000f0: 928b 1240 9a1b 0240 26c6 c940 9175 9f40
0.51567084 0.1262372 0.00700286 0.81020683 0.39972234 0.108119756 0.79256105 0.8692963
0.50005 0.0121030575 0.6642058 0.8510365 0.84467554 0.008018108 0.042964444 0.8785685
0.63951945 0.76031876 0.5246651 0.32887363 0.022722185 0.29126397 0.8255353 0.16092208
0.86983913 0.69307363 0.25998175 0.5958953 0.87210625 0.8197178 0.067930885 0.49824977
7.961495 2.400444 3.9394166 4.423618 3.8050838 3.6707826 2.3955185 1.6775808
5.5771294 6.4147644 2.7676435 1.6220555 6.034289 4.648332 5.3746867 1.896676
5.876938 1.9131584 5.0179324 1.5037072 2.80919 2.2621431 2.1365135 1.5198724
1.9972417 8.585965 1.874852 1.1354477 2.2897687 2.0329347 6.305438 4.9831014

features.denseblock1.denselayer3.conv1.weight f4 [16, 64, 3, 3, 3]
00000000: 3f29 b93a 91ff 7a3c ecb5 023d e77d c0bc
00000010: f79f c83c 2584 92bc ce4f afbc 895b 613d
00000020: 7b89 383c acc8 81bb 1c3e a7bc 0ee4 253c
00000030: e565 703c 7b6f 1d3d 1834 623c 5cc6 c33c
00000040: ec88 163d 69a7 ffbc 4677 31bd 2e9d 063d
00000050: 9010 02bd 0888 cd3a 1715 063d 9e69 7f3c
00000060: 9bb3 713b 3df0 37bb 4001 4d39 b0f6 44bd
00000070: 6706 9ebc 15aa 203d 927a 45bd 491b 273d
00000080: e6b0 a5bc 9ce1 17bd 3c77 d9bc d196 e53c
00000090: f5f5 913c 70c2 15bc cb6f 453d ac5e f33a
000000a0: b1a1 b2bc 4c6c b23d ca91 6a3b 6006 c7bc
000000b0: 2165 aa3c 22e4 743c f10b 543d 4493 80bc
000000c0: 3727 9c3c 5142 f8ba ec1d 0fbd 4c3b 613c
000000d0: e0da 293d 043e ecbc 8084 773d 54df 013c
000000e0: e32e a13c 1835 f5bc 651f 98bc 7877 22bc
000000f0: ef11 41bc 54bf c83c 861e 583d 2d4c 6b3c
00000100: c0c9 423d fcc5 cbb9 96c9 18bd 672e 90ba
00000110: 0c6f 3b3d 91c2 a1bc 8e77 e83c 6f8a 88bc
00000120: 1e1a b8b9 5b67 b2bc abf8 333c 79a5 2dbd
00000130: 4400 65bd ffcc b3bd 008e a0bc 464d d63c
00000140: f715 453c 0f43 17bd ba96 163c c3b1 9e3c
00000150: 5242 203d 79cb e13c a39a d13c bcbd 023b
00000160: 4a57 68bc dbe5 c43c 9c97 9fba 02b4 1cbd
00000170: 2350 4dbc 1535 8b3b b3ae 4cbd a560 6fbc
00000180: 8e84 0abd 31bc 133c df70 67bd dbef 36bb
00000190: 398d 823c 62b5 593c b4ab 00bc 0a73 423d
000001a0: 6249 80bd dc6b d33c 786e 903d 84a1 443d
000001b0: 0d0b 2a3d 1683 243b a4a5 7abd 848a 93bc
000001c0: ad5c e9bc 52c6 933c b11c 1e3d 14fa 903c
000001d0: 0e95 0dbd 1d02 2ebc 3ace 31bc 7979 89bd
000001e0: 9b81 04bd 70bf 26bd b62c d7bc 5213 aebc
000001f0: cbc7 32bd d1a2 f4bb 9d62 7abd f75d 003c
00000200: 41d4 fd3c e036 e7bc e8e3 fcbb 97ed b6bb
00000210: 606a 7e3c 3dfe 8d3d d395 073c f534 f83c
00000220: 8dd1 9a3b 6187 e33c ea08 c03c 52d5 20bc
00000230: 526d 21bb 3eb3 cfbc cc98 f7bc 48d3 343d
00000240: 22ac a73c 010a bc3c 4bcd 73bd 4545 49bb
00000250: c93e 04bd b169 623a 1f6a 043b c4fa 83bc
00000260: 3bd7 5fbc f37c 4f3c 9037 b63c 4bbe bfbc
00000270: b7b0 073d e5e3 80bc aaea fc3a 0b8f 653d
00000280: 2a76 8abb c0ea 2cbd 16c8 93ba 00ec 5f3c
00000290: 289e 273d 4180 66bc adad 363d ebe7 25bd
000002a0: 2c0e 5c3d ce2e cdbc 233d e5bc 9c76 183d
000002b0: a1fd d63c e9fc a7bc ad2c c53c 8675 f9bc
000002c0: 4b08 8c3c 4abc 553d 419f acbc e264 26bd
000002d0: b2e4 e83c f9ec 803c 3666 0b3c 4616 70bd
000002e0: 4813 7bbb 149f bfbc 9bf1 b73c b924 0ebc
000002f0: 58c7 313d 0e28 0b3d 45a4 fbbb 6e03 a6bd
00000300: 49b1 df3b 9871 dbbc bc24 913c 45dc 193c
00000310: d135 88bd c213 6a3d c6f3 003d 1cc8 313c
00000320: 82ba 223b a43f 69bc f249 e83b 6014 41bc
00000330: 1623 003d b7ad f63a e439 6a3c 84db e8bc
00000340: 5bb1 40bd c32f 183d 3708 70bd 9d2e 8f3b
00000350: e8c1 8dbd 77cd 1abb 69b1 dbbc 111a dcbc
00000360: 9967 083d a09a 09bd e2f7 bfbc 5bf0 a2bc
00000370: f40d 43bc 6422 0abc 2da7 34bd 6ff7 bcbc
00000380: af42 2c3d 11a3 e5bc bb39 4c3c 28d0 043d
00000390: f1c3 473c ed1c f6bc f955 d83c a8cd e8bb
000003a0: c924 35bd 28f3 953a 114a a53c 0f09 943d
000003b0: 9c4c 53bc 2824 2f3c f6f0 9bbd 8615 a7bd
000003c0: 962e f23c b27a e2bb cca1 82bc 26bd 96bd
000003d0: 73b6 5cbc 4c64 5fbc 20b4 91bc 6974 43bc
000003e0: bd82 a7bc d0bb 163b 2174 62bc fb48 03bd
000003f0: 91e6 623c fb76 b4bc 803b b6bd af8a 77bd
0.0014126672 0.015319721 0.031911775 -0.023497535 0.02449034 -0.017885277 -0.021400359 0.055018935
0.011263247 -0.0039606895 -0.020415358 0.010125173 0.014672731 0.038436394 0.013806365 0.023898296
0.036751673 -0.031207757 -0.04332664 0.032864742 -0.031754076 0.0015680799 0.032734957 0.015589146
0.0036880735 -0.0028066777 0.00019550789 -0.048086822 -0.019290162 0.039224703 -0.048212595 0.040797506
-0.020225953 -0.037080392 -0.026546113 0.028026016 0.017817477 -0.009140596 0.048202317 0.0018567643
-0.021805616 0.08712062 0.0035792463 -0.024295032 0.020800175 0.014946969 0.0517692 -0.015695222
0.019061668 -0.0018940662 -0.034940645 0.013747048 0.0414685 -0.028838165 0.060429096 0.007926781
0.019675678 -0.029932544 -0.018569658 -0.009916179 -0.011784061 0.024505295 0.052763484 0.014361423
0.047555685 -0.00038866687 -0.037301622 -0.0011000157 0.0457602 -0.019746097 0.02837732 -0.016667573
-0.00035114674 -0.0217778 0.01098458 -0.042394135 -0.055908456 -0.08779334 -0.01959896 0.026159894
0.012029163 -0.036929186 0.009191209 0.019371873 0.039125748 0.027562844 0.025586432 0.0019949516
-0.014180968 0.024035385 -0.001217592 -0.038257606 -0.012531313 0.004248271 -0.049971294 -0.014610444
-0.03381782 0.009017036 -0.056504127 -0.002791396 0.01593648 0.013287874 -0.007853437 0.04747299
-0.06263997 0.025808267 0.0705232 0.048005596 0.041514445 0.0025102547 -0.061193123 -0.018010385
-0.028486574 0.018038902 0.03860158 0.017697372 -0.034565978 -0.010620621 -0.010852391 -0.06712622
-0.032350164 -0.040709913 -0.026266437 -0.021249447 -0.04364757 -0.0074656983 -0.0611292 0.007834903
0.030985 -0.028224409 -0.007717598 -0.005582522 0.015528291 0.06933258 0.008275467 0.03029869
0.0047246874 0.027774515 0.02344175 -0.0098164845 -0.002463181 -0.025354024 -0.030224226 0.044146806
0.020467822 0.022953989 -0.059521955 -0.0030711454 -0.03228644 0.0008636965 0.0020204855 -0.016110785
-0.013662155 0.012664068 0.022243291 -0.023406168 0.033127513 -0.015733669 0.001929601 0.05604462
-0.004225512 -0.042216063 -0.001127484 0.013667107 0.040922314 -0.014068664 0.044599224 -0.040504377
0.053724453 -0.025046732 -0.027983254 0.03722249 0.026243987 -0.02050634 0.024069155 -0.030451547
0.017093798 0.05218152 -0.021072032 -0.040623553 0.028429363 0.015737997 0.008508256 -0.05861499
-0.0038311053 -0.023391284 0.022454074 -0.008675748 0.043403 0.033973746 -0.0076794946 -0.08106123
0.006826554 -0.026787564 0.017717712 0.009390895 -0.0665089 0.05714775 0.03148248 0.010850932
0.0024830406 -0.0142363645 0.007088893 -0.011784643 0.03128346 0.0018820082 0.014296029 -0.028424986
-0.04704414 0.037154924 -0.058601584 0.0043695704 -0.0692175 -0.0023621002 -0.026817994 -0.026867898
0.033301923 -0.033594728 -0.02343363 -0.019890001 -0.011905182 -0.008431051 -0.044104744 -0.023067204
0.042055782 -0.028031858 0.012464936 0.032425076 0.012192712 -0.03004309 0.026408182 -0.0071045943
-0.044224534 0.0011440264 0.02017692 0.0722829 -0.012896683 0.010689773 -0.07614319 -0.08158402
0.02956323 -0.006911599 -0.015946291 -0.07360296 -0.013471234 -0.0136347525 -0.017786086 -0.01192961
-0.020448083 0.0023000129 -0.013821633 -0.03205202 0.013848917 -0.02202939 -0.088980675 -0.060434993

features.denseblock1.denselayer4.norm1.weight f4 [80]
00000000: 5807 7f3f 657c 7e3f 6a1d 813f e744 7d3f
00000010: 0403 7f3f 9040 803f 2615 7e3f 2ec4 7d3f
00000020: a56d 7e3f 77e9 813f 1997 793f fc52 7d3f
00000030: 0fd2 7d3f 4afb 813f 2571 7f3f fb00 803f
00000040: 4fdd 7f3f 4c47 803f 42f8 7d3f ae36 7d3f
00000050: d54a 833f 8887 813f 6676 7d3f 6230 803f
00000060: f5e9 7d3f bd0c 803f 6fac 7c3f 4da8 813f
00000070: 0583 7d3f 38d4 7f3f 7cc5 803f c98a 7d3f
00000080: fbda 803f 93ef 7d3f e882 7f3f 70ed 803f
00000090: 5c37 813f 9e9b 7d3f bd7e 7e3f b8ec 803f
000000a0: 2c70 7f3f 5536 7d3f ffa4 7f3f 8bef 7e3f
000000b0: 39a9 803f d87b 7d3f f5a4 7e3f ac64 803f
000000c0: 1e3c 803f 3968 813f fcf8 803f d752 803f
000000d0: 5117 7e3f de08 803f 0e59 803f cbda 7e3f
000000e0: 7703 7f3f 7062 7f3f c0a0 7f3f 138d 803f
000000f0: da45 7f3f 9096 813f 34ac 7f3f 4cd4 7f3f
00000100: bc9e 803f 982c 803f 327e 7e3f 07e7 7e3f
00000110: 412e 7f3f a1dc 803f 32bc 803f 8c4b 803f
00000120: e7c3 7f3f 5f43 7d3f f211 823f af9a 7e3f
00000130: c25e 803f f5b4 7f3f af89 7f3f b107 803f
0.9962058 0.9940856 1.0087101 0.9893326 0.99613976 1.0019703 0.9925102 0.9912747
0.99386054 1.0149373 0.9749618 0.9895475 0.9914865 1.0154812 0.9978202 1.0000299
0.99947065 1.0021758 0.99206936 0.9891156 1.0257212 1.0119486 0.99008787 1.0014765
0.99185115 1.0003887 0.9870061 1.0129486 0.99028045 0.99933195 1.0060267 0.99039894
1.0066828 0.99193686 0.9980912 1.007246 1.0095019 0.9906558 0.9941214 1.0072241
0.99780536 0.9891103 0.9986114 0.99584264 1.0051643 0.99017096 0.99470454 1.0030723
1.0018346 1.0109931 1.0075984 1.0025281 0.9925433 1.0002706 1.0027177 0.995526
0.9961466 0.9975958 0.9985466 1.0043052 0.9971596 1.0124073 0.99872136 0.99933314
1.0048442 1.0013609 0.9941131 0.9957127 0.9967995 1.0067331 1.0057433 1.0023055
0.999083 0.98930925 1.0161726 0.9945478 1.0028918 0.99885494 0.99819463 1.0002347

features.denseblock1.denselayer4.norm1.bias f4 [80]
00000000: 50e5 58bb 0d8a 3a3c 254e 1b3c e6e5 73bc
00000010: a64c d2bc fdee 443c 06f8 573c f629 aa3c
00000020: f2b1 78bc db62 843c c498 043b 1cb3 053c
00000030: 3ef6 11bd bdba 993b bca8 14bc b06e a93c
00000040: bfdf 90bb 2ef1 433c 2b91 85bc 3af5 c73b
00000050: 3459 153b 3045 11bd 026c 71bc 3cd7 70bc
00000060: 214a 8a3c c739 6cbc e9ae 06bc 9d9f febc
00000070: a17a 173c 34d6 cb3c 778f 3a3c aa70 1a3d
00000080: a506 e23b f6ca 07bc fb7b fb3b f952 f2bb
00000090: bac4 143b ead1 ac39 ab84 26bc 4e88 d63b
000000a0: db3d f8b9 9f0c 5ebb f393 dabc af35 d5bc
000000b0: 2e37 2fbb c76b 1fbb 8782 9e3a 5227 093a
000000c0: 01d1 44bb f9ac 4eba 67fe a6ba 5d55 84bb
000000d0: e206 9fbb 6481 8fba 9099 b1bb 48b2 bcbb
000000e0: e875 d6bb 503e 193b 07d2 8dbb 48b6 a8bb
000000f0: 57af 5b3a 66eb 933a 63f2 b43c 9927 65b9
00000100: a29e 2abc 31a8 f5bb bd99 9cbc 3868 b4bb
00000110: c733 01bb c1d3 a639 c21c f43b 5696 aabc
00000120: 67fa a2bb 4ca7 1fbc fb26 15bc 7cda 3abc
00000130: fe36 d4bb 0bdd 74bb 2370 3bbc 2804 09bc
-0.0033095665 0.011385453 0.00947908 -0.014886355 -0.025671314 0.01201987 0.013181692 0.020771962
-0.015179144 0.01616042 0.0020232657 0.008160379 -0.035635225 0.0046914504 -0.009073433 0.020682663
-0.004421204 0.011959357 -0.016304573 0.0061022313 0.0022788765 -0.035466373 -0.014735224 -0.014699753
0.01688105 -0.014418072 -0.008220413 -0.031081969 0.009245546 0.024882413 0.011386744 0.0377051
0.0068977647 -0.008288136 0.0076746917 -0.007395145 0.0022700266 0.00032962795 -0.010163466 0.0065470105
-0.00047348332 -0.0033882034 -0.026681876 -0.026026575 -0.002673577 -0.0024325715 0.0012093344 0.00052319944
-0.0030031803 -0.00078840513 -0.0012740613 -0.0040384964 -0.0048531154 -0.0010948596 -0.0054199174 -0.0057585575
-0.0065448172 0.0023383088 -0.0043280157 -0.0051486827 0.00083803147 0.0011285364 0.022088235 -0.00021853893
-0.010413798 -0.0074968566 -0.019116277 -0.005505588 -0.00197147 0.00031819756 0.0074497173 -0.020823639
-0.004973698 -0.0097444765 -0.009103532 -0.01140463 -0.006476282 -0.0037363197 -0.01144031 -0.008362807

features.denseblock1.denselayer4.norm1.running_mean f4 [80]
00000000: 6c74 fa3d d3e6 323e 116a 5b3e c111 2f3e
00000010: 9a09 ca3d 4668 303e f011 1f3e 10aa 423e
00000020: 7bd1 e33d d39c 4f3e 88f4 133e a67e 363e
00000030: c5c6 3f3e 389a 4e3e d423 413e 348e 3a3e
00000040: 1034 203e 6a48 253e 3a67 d03d 2e22 173e
00000050: 68b7 393e d4b0 bf3d f01d 273e f97e 143e
00000060: ccf3 3d3e a7c7 0d3e 7197 1b3e e943 ee3d
00000070: 5e1e 4d3e 4270 263e ca4c 393e 03e4 f53d
00000080: 8183 07bf 347c 8f3d baae bdbd 5f97 01bf
00000090: 4f39 c7be 623d c4be 37fa b5be abbb 65be
000000a0: 4020 c1be eeab 13bf c7bb adbe 7eef 40bd
000000b0: 9301 72be 0859 abbe 02b1 04bf 004c 5fbe
000000c0: 5be9 12bf 28d7 a7bd 6b8a d6be 0f4d 04be
000000d0: 54b2 8ebe 0e9e e1be 168e b1be 23e9 9cbd
000000e0: b217 62be 8d20 57bf 088b b6be 3180 14bd
000000f0: 78a9 cabe 44bd 89be e0b6 12bf 50df b9be
00000100: 9788 3c3e 30ba 30be 68b1 d63e 7169 34be
00000110: b531 10bf eb86 1cbf a1ab 82be a578 c8be
00000120: bba2 c0be 8f19 a1be 44a5 19bf b22b bfbe
00000130: 77f4 b7bd 1474 153e 564a ecbe 3441 8ebe
0.12229237 0.17470865 0.2142718 0.17096616 0.098651126 0.17227277 0.15534186 0.19010186
0.111239396 0.20274667 0.1444875 0.1782175 0.18728168 0.20176017 0.18861324 0.18218309
0.1564486 0.16140905 0.10175939 0.14759132 0.1813637 0.09359899 0.16320014 0.14501561
0.18550032 0.13845693 0.15194489 0.116340466 0.20031115 0.1625376 0.18095699 0.120063804
-0.52935034 0.07006112 -0.09261842 -0.506216 -0.3891091 -0.3832808 -0.3554246 -0.22434871
-0.37719917 -0.5768422 -0.33932325 -0.047103398 -0.23633413 -0.33466363 -0.5183259 -0.21806335
-0.5738732 -0.08195335 -0.4190248 -0.1292002 -0.2787043 -0.440659 -0.34678715 -0.07661655
-0.22079352 -0.84034044 -0.35652947 -0.036255065 -0.3958242 -0.2690221 -0.57310295 -0.36303186
0.1841148 -0.17258525 0.41932225 -0.17618348 -0.56325847 -0.6114337 -0.25521567 -0.39154544
-0.37624153 -0.31464812 -0.600178 -0.37338024 -0.08982175 0.14595062 -0.46150464 -0.2778412

features.denseblock1.denselayer4.norm1.running_var f4 [80]
00000000: 0103 043f 5344 013e 3f78 e53b b769 4f3f
00000010: 68a8 cc3e e46d dd3d 48e5 4a3f 348a 5e3f
00000020: 4703 003f e74b 463c 6409 2a3f 87dd 593f
00000030: a83c 583f 625e 033c 7cfb 2f3d dde9 603f
00000040: 8cb7 233f 40a4 423f 7450 063f 2062 a83e
00000050: e023 ba3c 8d20 953e 4856 533f c2c8 243e
00000060: c7ad 5e3f 466d 313f 541c 853e 988c 183f
00000070: 5b42 5f3f 07d9 513f 591f 8b3d 981a ff3e
00000080: 91c4 fe40 e0a0 1940 671f 7c40 478e 8d40
00000090: 7e86 7340 1aee 6a40 2d50 1940 f8ba d63f
000000a0: d877 b240 c045 cd40 1221 3140 849f cf3f
000000b0: e518 c140 23bf 9440 6ffd ab40 47c6 f23f
000000c0: e00f bc40 60e2 f43f e792 a040 7a79 c03f
000000d0: c5c9 3340 f4c6 1040 a3bc 0840 2e8b c23f
000000e0: 9ea5 ff3f 1d60 0941 26fb ef3f 5a56 913f
000000f0: 928b 1240 9a1b 0240 26c6 c940 9175 9f40
00000100: eb60 993f cc06 0a40 0842 8f40 ee9c d83f
00000110: 39d0 2841 a9f2 5040 9b98 ac3f ef31 cf3f
00000120: 7ce7 1040 6c8c a53f d488 fd3f 4c65 0e40
00000130: 7793 d63f 9795 2240 82e3 cf40 d999 cd3f
0.51567084 0.1262372 0.00700286 0.81020683 0.39972234 0.108119756 0.79256105 0.8692963
0.50005 0.0121030575 0.6642058 0.8510365 0.84467554 0.008018108 0.042964444 0.8785685
0.63951945 0.76031876 0.5246651 0.32887363 0.022722185 0.29126397 0.8255353 0.16092208
0.86983913 0.69307363 0.25998175 0.5958953 0.87210625 0.8197178 0.067930885 0.49824977
7.961495 2.400444 3.9394166 4.423618 3.8050838 3.6707826 2.3955185 1.6775808
5.5771294 6.4147644 2.7676435 1.6220555 6.034289 4.648332 5.3746867 1.896676
5.876938 1.9131584 5.0179324 1.5037072 2.80919 2.2621431 2.1365135 1.5198724
1.9972417 8.585965 1.874852 1.1354477 2.2897687 2.0329347 6.305438 4.9831014
1.1982702 2.1566648 4.4768105 1.6922891 10.550836 3.2648108 1.3484071 1.6187114
2.2641287 1.2933478 1.9807382 2.2249327 1.6763753 2.5403802 6.496522 1.6062576
